assets/model_for_verify.tflite (tflite, 35972 bytes, 5 tensors)

arith.constant3 f4 [5, 35]
000000 9a ba 19 3d 46 0f 1f 3f 7f 86 97 be ff 19 21 bf
       0.037531473 0.6213268 -0.295948 -0.6293029
000010 bd 40 2d 3f b2 50 02 3f 04 0e ba be 8d 18 c7 3e
       0.6767691 0.5090438 -0.36338818 0.38885918
000020 e0 de e7 3c 91 cd 32 3d e8 5d 16 be 89 42 d9 be
       0.028304517 0.043653075 -0.1468426 -0.42433575
000030 b9 64 8e bd 1e 3d 56 be 56 ff 5e bf d5 5c 6f 3e
       -0.06952805 -0.20921752 -0.8710836 0.23375256
000040 d8 92 93 3e 18 b9 8e bd 20 da ff 3c a0 47 3b 3c
       0.2882297 -0.069688976 0.03123194 0.011430651
000050 a2 3f 07 3f cb 31 a5 bd 65 35 3b 3e f0 6b 5e 3e
       0.5283147 -0.08066138 0.18282087 0.21720862
000060 87 cb 9c be 92 9d 57 3f 8c 2d 2e 3f 84 16 e2 bd
       -0.3062403 0.8422481 0.6803825 -0.11039451
000070 78 df ad bd ac 4e d1 bd 1e 48 84 3f 1f 49 a8 be
       -0.08489889 -0.102200836 1.0334508 -0.32868287
000080 c2 85 a2 3e d5 a9 5d 3f aa 40 74 be da da 44 3e
       0.31742674 0.8658727 -0.23852792 0.1922411
000090 12 9c 67 bf 33 9e be bd 86 57 4a 3f 51 3a 28 bf
       -0.9047252 -0.09307518 0.790398 -0.65713984
0000a0 c4 e1 4c bf 80 b4 02 3f 21 2d c5 be b4 93 ae 3e
       -0.8003199 0.5105667 -0.38510993 0.34097064
0000b0 01 35 8f be ef 18 b7 bc bb 4c a1 bc 4a 35 f1 be
       -0.27970126 -0.022350756 -0.019689908 -0.4711097
0000c0 b8 c5 07 3d bf 46 a9 3e f7 f4 77 be 68 18 c4 be
       0.033147544 0.33061787 -0.2421454 -0.3829987
0000d0 68 12 34 3e 0a b2 ad 3e f0 f2 a1 3d 90 c9 91 be
       0.17585146 0.33924896 0.07907665 -0.28474092
0000e0 9d 5a 1f 3f 0a 80 ea bd 89 ee 3a bf 59 08 69 3f
       0.6224764 -0.11450203 -0.73020226 0.9102836
0000f0 cd 06 9c be 40 14 b3 be 3b 2f 74 be 80 50 14 3e
       -0.3047394 -0.34976387 -0.23846142 0.14483833
000100 68 34 ed bd f4 96 53 3e e0 b2 33 3d f4 89 e2 3d
       -0.11582261 0.20663053 0.04387176 0.11061469
000110 ca 01 76 be 14 77 02 3f cd 59 2e 3c eb a8 1c 3f
       -0.2402412 0.5096295 0.010641527 0.6119525
000120 77 17 a3 be 85 4f 15 bf 29 79 a3 3d 49 b9 3f bf
       -0.3185384 -0.5832446 0.07982094 -0.748921
000130 c1 9f 1a 3f db 04 43 3f ce e9 8f be e7 9c 8b 3e
       0.60400015 0.76179284 -0.28108066 0.27268144
000140 75 23 9d 3d 33 77 8f 3e 3b f0 3a bd 4f 35 c9 3e
       0.076727785 0.2802063 -0.045639258 0.39298484
000150 a2 48 7c 3f b5 30 f2 bc 79 d2 e3 3e 1e e7 b5 be
       0.9854833 -0.029564241 0.44496515 -0.3552789
000160 a8 95 ff bd 10 85 f6 bd 2d a3 39 3f 83 00 a0 be
       -0.124797165 -0.120370984 0.7251461 -0.3125039
000170 c3 1a 86 3d a7 2a 1b 3f 7a 71 4e 3e 76 eb 3b bf
       0.06548073 0.6061196 0.20160475 -0.7340616
000180 9c 7b 87 bf e7 8a 17 3e 7a dd 47 be a1 b1 91 be
       -1.0584598 0.14799081 -0.1951808 -0.28455833
000190 0a 0c 79 3e 62 1e f2 bd 0c 47 a7 bd 0d 31 60 bf
       0.24320999 -0.11822201 -0.08167848 -0.87574846
0001a0 53 97 54 bd 4e 0e b9 bd a9 71 2f bf 85 b9 51 be
       -0.051902127 -0.090359315 -0.68532807 -0.20480926
0001b0 49 d0 d6 be 81 5c 52 bf 49 ef 68 3e d9 85 09 be
       -0.41955784 -0.821724 0.2274753 -0.13429965
0001c0 e3 d8 83 3f c0 a7 9a 3c fa 32 9e 3e 26 db 65 be
       1.0300564 0.018878818 0.30898267 -0.2244688
0001d0 a9 81 fa 3b 43 37 8c bd 05 7c 5a be e1 ee 37 3f
       0.007644851 -0.06846478 -0.21336372 0.71848875
0001e0 6b 7a 0b bd 74 d7 99 3e 70 5e 68 3e 18 80 02 3e
       -0.034052294 0.3004719 0.22692275 0.12744176
0001f0 3c 20 74 3e 6a 03 3b 3f 50 25 53 bf 88 38 b2 be
       0.23840421 0.73052084 -0.8247881 -0.34808755
000200 43 43 9e 3e d0 0e 4f bf 38 a6 f7 3e e4 82 21 bf
       0.30910692 -0.8088198 0.48369002 -0.6309035
000210 84 0a 4b 3e 78 7a 02 3e 9c dd 06 3e a7 af 1c bf
       0.1982823 0.1274203 0.13170475 -0.61205524
000220 b6 76 ae 3e 24 b2 9f bd 3d 22 6a 3f f9 8c a6 3d
       0.34074944 -0.077976495 0.91458493 0.08132357
000230 29 21 24 be 3b b5 33 3f 08 3b 6a be 7c 44 7b 3f
       -0.16028275 0.7019841 -0.22874081 0.98151374
000240 12 80 20 bf 0a 2a ac 3e c3 b5 1b bf c8 11 14 bf
       -0.6269542 0.33625823 -0.6082422 -0.5783963
000250 12 4b 62 be 4b 7f 86 bc d4 f9 53 bd 49 9b 5e 3e
       -0.2209895 -0.01641812 -0.051751927 0.21738924
000260 e8 8b 02 bf 46 38 91 be 9e c8 8c 3e f4 1c 4e bd
       -0.5099473 -0.28363246 0.2749681 -0.05032058
000270 6a 2f 14 3f 98 37 39 bd b0 98 95 3d c4 78 31 3e
       0.5788485 -0.045219034 0.073045135 0.17331225
000280 62 0a 87 be 6c e1 c6 be e0 79 6c bd a8 d7 80 be
       -0.2637511 -0.38843858 -0.057733417 -0.25164533
000290 a6 56 80 3f db 1a ff be ac 71 dd 3e 77 3d 84 be
       1.0026443 -0.49825177 0.43250787 -0.25828144
0002a0 94 f9 63 3e 40 9b 9f 3b f3 6c 95 be 22 9d f3 3c
       0.22263175 0.004870802 -0.29184684 0.029738013
0002b0 05 04 99 be 37 4d da be d1 75 1b 3f
       -0.2988588 -0.42637035 0.6072665

arith.constant4 f4 [5]
000000 64 8a e5 bc e2 b8 16 3d 7a 34 92 bd 07 36 f5 3d
       -0.028020091 0.03679741 -0.07138915 0.119731955
000010 83 4f 48 bd
       -0.048903953

arith.constant16 f4 [140, 8]
000000 14 6e 87 3d 5e ba 36 3e 74 cb 1b 3e 20 90 59 3c
       0.066127926 0.17844531 0.1521433 0.013278991
000010 80 44 8c bc 9c db 7a bd ee 33 0a 3e 14 12 f1 3d
       -0.017122507 -0.061244592 0.13496372 0.11771026
000020 07 0d 58 bd 8e 59 a1 3d 59 b7 3b be f5 4d 5e bd
       -0.0527468 0.07878409 -0.1833166 -0.054273564
000030 f3 02 b2 bd cb 89 ca 3d d6 52 83 3d 16 c3 b7 3d
       -0.08691969 0.09889563 0.06412284 0.089727566
000040 40 69 37 3e 18 66 aa 3d 30 94 28 3e 3a b6 33 3e
       0.17911243 0.08320254 0.16462779 0.17549983
000050 ea 49 93 bd 4c 1d f6 3d d0 04 20 bd 98 e1 70 3d
       -0.07191832 0.12017307 -0.03906709 0.058808893
000060 c4 42 69 bd ca d4 16 bc a6 45 8c bd f5 9e 1e 3e
       -0.05694844 -0.009206006 -0.06849222 0.15490325
000070 e8 e4 21 3e ae 82 30 bd f7 3c 00 bd f0 08 c6 3d
       0.15809977 -0.043093376 -0.03130814 0.096696734
000080 e9 24 19 3e dd 90 bd bd f2 28 d7 bd fb b5 02 3e
       0.14955486 -0.09256146 -0.105058566 0.12764733
000090 78 0a 85 bd a2 b7 4c 3d 80 cb 23 3e 62 4e 21 be
       -0.064961374 0.049979813 0.15995598 -0.15752557
0000a0 c8 81 90 bd cb 4d 0b 3e 6a ec a1 3d f5 16 51 3e
       -0.07056004 0.13603894 0.079064205 0.20418914
0000b0 1c 13 27 3e 8a ed 33 be c2 8f 6f 3d e8 0a cf bc
       0.16315883 -0.17571083 0.058486708 -0.025273755
0000c0 3c 2f 0c 3e 9c 72 af 3d e8 08 be 3d 60 23 c0 bb
       0.13689893 0.08566782 0.092790425 -0.005863592
0000d0 40 48 7c bd c0 4d fd bc de 7e 41 3e d8 21 ab 3c
       -0.06159234 -0.030920863 0.18896052 0.020890161
0000e0 b9 48 d5 bd 59 49 dd bc 50 f4 cf bd 62 32 72 bd
       -0.10414261 -0.027012514 -0.10154021 -0.05913008
0000f0 88 87 2f bc 76 20 03 3e 8a 07 af bd d9 8f 2d 3e
       -0.0107134655 0.12805352 -0.0854636 0.16949405
000100 0b 99 23 be 10 fd a7 bd 70 e6 6c 3c f8 03 6d 3d
       -0.1597635 -0.08202565 0.014459237 0.057865113
000110 d4 1a 2e 3d b6 be 84 bd 0e 52 c2 bd 44 a0 0d 3d
       0.042506054 -0.06481688 -0.09488307 0.03457667
000120 57 55 0a 3e 5d 24 6b bd b5 5d 48 be 41 7f 16 3d
       0.13509117 -0.057407726 -0.19566996 0.036742453
000130 e9 ff 59 bc ca 82 1d be da cd 78 3e bb 20 66 3d
       -0.013305643 -0.15381923 0.24297276 0.056183558
000140 70 e7 80 3c c7 54 14 be 58 34 83 3d 28 d8 0e be
       0.015735358 -0.14485465 0.06406468 -0.13949645
000150 a2 d1 1b 3e c0 06 d3 bc cd ce bf bd d8 6b 23 3e
       0.15216687 -0.025760055 -0.09365616 0.15959108
000160 0d 79 04 3e d2 5c 42 bd 5a fd 8e bd 43 44 df bd
       0.12936802 -0.0474518 -0.06981917 -0.10901692
000170 85 2d 64 be dc 81 aa 3d d1 1a a5 bd 59 1f b1 3d
       -0.2228299 0.0832555 -0.080617554 0.08648557
000180 3e f0 19 3e 74 f9 0f 3e 22 6a 95 bd 8c 6e 23 3e
       0.15033051 0.14060003 -0.07295634 0.15960139
000190 e0 2e 67 bc c0 7d 48 3c 38 3a 1e 3e 5c 36 8d bd
       -0.014110297 0.012237012 0.15451896 -0.06895134
0001a0 db 6f 89 bd 41 1a 16 be d7 94 28 be 4d 50 2c be
       -0.06710788 -0.14658453 -0.16463028 -0.16827507
0001b0 26 a3 24 3e 42 80 35 3d 46 07 74 bd 2a ab 40 3e
       0.16077861 0.04431177 -0.05957725 0.18815294
0001c0 68 5b 11 3e 7e 90 87 bd b6 1c 12 3e 28 5d 40 3d
       0.14195025 -0.066193566 0.14268765 0.04696384
0001d0 74 c7 47 3e 36 88 06 3e 54 58 65 bd 90 96 95 3c
       0.19509679 0.13137898 -0.05599244 0.01826027
0001e0 67 8a 1c 3d e6 6a 79 bd c5 a0 0c bd d2 c9 cc 3d
       0.03821793 -0.060892962 -0.03433301 0.09999432
0001f0 ad c5 be 3d d0 78 a4 bc 03 e1 21 be 13 99 c1 3d
       0.093150474 -0.02007714 -0.15808491 0.09453025
000200 24 2b 39 3d 80 ae e3 bd 82 3f 3a bd e1 85 b3 bd
       0.045207158 -0.111172676 -0.045470722 -0.0876577
000210 65 95 a2 bb ed d7 5b 3c 9b 7b 90 3c 0d 5d 9c 3c
       -0.004961657 0.01341818 0.017637065 0.019087339
000220 f0 19 02 3d ea 3e 43 be 7b fb fe bd ac 12 03 be
       0.031763017 -0.19066969 -0.1245031 -0.12800092
000230 d5 1d 20 be 60 b9 24 bd c6 3f f6 bd a6 83 b1 bd
       -0.1563638 -0.04021585 -0.120238826 -0.08667688
000240 ab 6e 4c be 57 4d f0 bd 20 ec 7f 3d 9c 33 4b 3e
       -0.19964091 -0.117335014 0.062481046 0.19843906
000250 90 e0 9f 3c b0 3e 02 3d 80 b9 8a bd 04 bf 42 3e
       0.01951626 0.031798065 -0.067736626 0.19018179
000260 58 c8 15 bd b8 cb 36 bd 90 8e ae 3d f6 ae 4d be
       -0.036568016 -0.044627875 0.085232854 -0.20086274
000270 00 dc ac 39 69 ef 20 be fe ea 1d be 91 9e 2e be
       0.0003297031 -0.15716328 -0.15421674 -0.17052676
000280 0d d1 ea 3d e4 12 ea b8 de 60 2a bd 90 51 2b 3e
       0.114656545 -0.00011161508 -0.041596286 0.16730332
000290 2a a5 c8 3d 24 71 34 be c7 ed 2e be 38 ba e4 3c
       0.097971275 -0.17621285 -0.17082892 0.027920827
0002a0 96 b9 8a bd a5 8d 48 3e bb 88 8c 3d c9 73 55 3e
       -0.06773679 0.19585283 0.06862017 0.2084495
0002b0 39 9d c9 bc 0f 2b 00 be 99 3e 13 be 1c 10 d8 3d
       -0.024611102 -0.12516426 -0.14379348 0.105499476
0002c0 f8 55 f8 3d 60 10 ec ba 53 b4 ee bc 99 24 43 bd
       0.12125772 -0.0018010251 -0.02913872 -0.047642324
0002d0 98 c7 aa bc 9b 2a 46 3d 03 70 f5 bd 3e 82 6c bd
       -0.020847127 0.048380475 -0.11984255 -0.057741396
0002e0 12 5f 0e 3c af 05 be bd d6 fb a8 bd 62 a9 4e 3d
       0.008689659 -0.09278428 -0.08251159 0.050454505
0002f0 cc e8 31 3d c1 40 20 3e ad 96 81 3d 59 c7 f2 3d
       0.043434903 0.15649702 0.06327567 0.11854429
000300 e2 29 82 bc 15 ae bc bd 11 1e 43 3e 27 21 1b 3e
       -0.015889112 -0.09212891 0.19054438 0.15149365
000310 90 d3 8f bd 37 93 b6 3c 2b dd b5 3d bc 32 ed bd
       -0.07022774 0.022286994 0.08880075 -0.115819424
000320 55 70 5f 3e 96 b7 04 be a2 ab 87 3c d7 96 0a 3e
       0.21820195 -0.12960657 0.016561333 0.13534103
000330 cd 3e 22 bd d1 45 2a be 21 cb bd 3d 0b 7c 0e 3d
       -0.039610673 -0.16628195 0.092672594 0.034786265
000340 5c f8 30 be 2c 5d 12 3e 86 2c 09 3e b4 09 14 3e
       -0.17282242 0.14293355 0.1339589 0.14456826
000350 c9 81 4f bd c8 92 a2 bc ce 07 e3 bd 48 40 15 be
       -0.050660882 -0.019845381 -0.11085473 -0.14575303
000360 b7 5e 1c 3d e3 02 c9 3b 87 18 27 3e be 75 0e bc
       0.038176265 0.0061343773 0.1631795 -0.008695064
000370 95 7b 29 3d ea a3 bf 3d f4 ab 27 be 6c d8 17 be
       0.041377623 0.09357436 -0.16374189 -0.14828652
000380 20 4e 99 3b 70 24 a9 3d 3c 53 3d 3e 5d 90 00 be
       0.0046785027 0.08258903 0.18488783 -0.1255507
000390 cc d7 6e bd 40 fe 19 3e 18 cb df 3d c8 2f df bd
       -0.05831127 0.15038395 0.10927409 -0.108977854
0003a0 36 5a 30 3e 5c 69 3a be 44 fc 13 bd c4 ef 09 be
       0.17221913 -0.18204254 -0.03612925 -0.1347037
0003b0 56 f5 08 be 84 47 07 be 7f 90 45 be 42 45 9d bd
       -0.13374838 -0.13210875 -0.19293402 -0.076792255
0003c0 6b b4 07 be 42 e2 4d 3e ec 3b da bc 00 57 07 be
       -0.13252418 0.20105842 -0.026639901 -0.13216782
0003d0 bc 11 e7 3d c6 10 f6 bd ea 65 25 be 64 8c 18 3e
       0.112826794 -0.12014918 -0.16152158 0.14897305
0003e0 1f 0c 00 3e 06 0b 3c be 8f 27 ad 3c 67 2e 31 3e
       0.12504624 -0.1836358 0.021137027 0.17302857
0003f0 8d bc 3c be d8 5c 85 bd cf 88 e8 bd 59 72 5e 3d
       -0.18431301 -0.06511849 -0.11354219 0.05430827

arith.constant17 f4 [140, 35]
000000 80 47 23 bc cd 3a a2 3c d9 1e f9 3d 98 7a ce 3d
       -0.009965777 0.019803429 0.12164087 0.10081977
000010 17 ce 25 3e 77 b7 97 bd fb 74 53 3d b3 15 08 3e
       0.16191898 -0.0740804 0.051625233 0.13289528
000020 9d 06 82 bc 4a 37 13 3e cc 44 34 3a 84 c3 d9 bc
       -0.015872294 0.1437656 0.00068767066 -0.026582487
000030 78 42 02 3e 5b 47 8a bb 43 6e 34 3e f0 47 c6 bd
       0.12720668 -0.004219932 0.17620187 -0.0968169
000040 9e a1 4a be c2 33 00 be f7 70 3d bc 8d 3d 0b bc
       -0.19788215 -0.12519744 -0.011562577 -0.008498562
000050 43 bc c8 bc 8c 69 42 3c ed e2 16 bd b8 ef 30 3c
       -0.024503833 0.011865985 -0.036837507 0.010799341
000060 26 55 a8 3d 02 10 06 3e 84 c4 9b 3c d6 be 98 bd
       0.08219366 0.13092044 0.019014604 -0.07458274
000070 73 3d 1e 3d 87 20 9c 3c 5f d5 00 be 95 b6 cf bd
       0.03863282 0.019058479 -0.12581395 -0.10142247
000080 f7 3b bd 3d e7 ee d0 3c 9b 7d 1e 3e 80 eb 92 bd
       0.09239953 0.025504543 0.15477602 -0.07173824
000090 c7 d7 3b bd cc 17 d4 3d 88 42 70 3d f1 60 1e 3e
       -0.04586008 0.103561014 0.0586572 0.15466668
0000a0 ca 52 6c bc 73 d4 43 be 43 49 c9 3d db 61 f0 3c
       -0.014424035 -0.19124012 0.09828427 0.029343536
0000b0 81 47 12 3e f0 a2 81 3d 37 16 37 bd bd 0e 70 bd
       0.14285089 0.06329906 -0.04469892 -0.058607806
0000c0 c6 00 31 3e 6d 89 98 3d a2 e8 28 3d 25 db 1d be
       0.17285451 0.07448087 0.04123748 -0.15415628
0000d0 d6 5e 68 bc 51 87 72 ba b3 fa bc 3d f4 89 2f 3e
       -0.014182767 -0.0009251731 0.092275046 0.17142469
0000e0 70 6d 06 bd f3 db 6a bd 84 ed 6e bc b6 a4 20 3c
       -0.03281921 -0.057338666 -0.014582995 0.009804895
0000f0 cf 17 66 3d 53 1b 0e bd 83 21 38 bb 91 f9 49 3c
       0.05617505 -0.034694027 -0.0028096146 0.012327568
000100 39 fd b4 3d 22 63 bf bb 89 d0 39 bc a6 fb 89 3d
       0.08837361 -0.005840675 -0.011341223 0.06737451
000110 7b 22 fa bd 6c 5c c0 bb a5 be df bc 85 11 72 3d
       -0.12213608 -0.0058703925 -0.027312586 0.05909874
000120 d5 55 82 bb ba 2b eb bc 36 c9 0a be a6 42 3a 3d
       -0.003977517 -0.028707374 -0.13553318 0.045473717
000130 1a fa 2e bd 7f 85 36 be e8 20 f6 3d 54 33 37 3e
       -0.042718984 -0.17824362 0.12017995 0.17890674
000140 e0 b5 74 3c 03 b6 b8 3b 78 ca c5 3d 26 ac 0b bd
       0.0149359405 0.005636932 0.096577585 -0.03409972
000150 9a 0c 23 bd b6 91 04 be 38 4f 4a bd 05 5f e0 bd
       -0.03980694 -0.1294621 -0.049391955 -0.109556235
000160 58 5a 4b 3b 46 95 e0 3d c9 04 b4 3d 89 df 21 3c
       0.003102919 0.10965972 0.08789975 0.009879955
000170 64 0b f9 bb 4e b8 40 3d 83 e7 25 bc 15 27 29 bc
       -0.007600235 0.047050767 -0.0101259975 -0.010324259
000180 80 18 44 3e dd f8 93 3c cf 8f e9 3d ab 9f 06 bd
       0.19149971 0.018063003 0.114043824 -0.032867115
000190 7b e5 b5 3d 31 60 c0 bd 63 a5 b3 bd bf f4 90 bd
       0.088816606 -0.09393347 -0.087717794 -0.070779316
0001a0 68 7f f9 bd 50 77 28 bd ea 5c dd bb eb 7b 8a bb
       -0.12182504 -0.04112941 -0.006755461 -0.004226198
0001b0 12 80 12 3e 3a 34 06 be fe aa 77 3c e6 db 0d be
       0.14306667 -0.1310586 0.015116451 -0.13853416
0001c0 72 d0 bb bd 53 0e ad 3c 76 33 9f 3d cc ea 8e 3d
       -0.09170617 0.021124994 0.07773487 0.06978378
0001d0 51 20 b0 bc 74 00 75 3c b9 3c 50 bd 82 46 ca bd
       -0.021499785 0.014953721 -0.05083916 -0.098767295
0001e0 e8 ad 34 be 0d d3 53 3e b6 82 e5 bd 96 68 95 bb
       -0.17644465 0.20685978 -0.11206572 -0.0045595868
0001f0 a3 ae 98 3d 39 55 24 3e 83 dc 9e 3d 93 a0 2d 3d
       0.07455184 0.16048135 0.07756903 0.042389464
000200 29 42 f4 bd 7c 2e d5 ba 64 2b f2 bc 03 b9 65 be
       -0.119266815 -0.0016264464 -0.029561706 -0.22433858
000210 2f 97 a0 3d 4f 4b 88 bd e9 e1 1b bd 1b 0e e8 bd
       0.07841336 -0.06654989 -0.03805724 -0.113308154
000220 9a a9 e6 3c bc c3 13 bc 54 ec a9 bd 5b 9a a5 bc
       0.028157044 -0.009018835 -0.08297029 -0.020215204
000230 69 70 dc bc 06 7f 6b ba 48 4e bf bd a3 2a 3e 3d
       -0.02690907 -0.00089834665 -0.09341103 0.04642738
000240 ce 76 c2 bb 83 f7 8d bd 57 10 9d 3a 32 b5 85 3d
       -0.005934573 -0.06931975 0.0011983019 0.06528701
000250 15 57 5b 3c eb 83 db bd 12 af 11 be bb e0 d3 bd
       0.013387461 -0.10718521 -0.1422694 -0.10345598
000260 fe 4a fa bd b4 d7 f6 3c 69 04 55 3c b1 69 80 bc
       -0.12221335 0.030132152 0.01300154 -0.015675398
000270 a6 b1 17 bc ee 81 27 3e 5e cd c9 bd a0 16 20 be
       -0.009258663 0.16358158 -0.09853624 -0.15633631
000280 34 e1 e2 3b 2d 09 f6 3d 54 1f 15 3d cb d1 34 3d
       0.006923819 0.12013469 0.03640683 0.044145387
000290 06 3c a7 3d 16 d6 8a 3d 4a 4b e8 3d 0a 6e 27 3c
       0.081657454 0.06779115 0.11342485 0.010219106
0002a0 9d 70 c4 3d 03 70 7a 3d fa 35 58 be 3c c3 23 be
       0.09591792 0.06114198 -0.2111434 -0.15992445
0002b0 33 8f a7 bc 17 cd d2 bc 61 9b 28 3d cf 3d 74 be
       -0.020454025 -0.02573256 0.041163806 -0.23851703
0002c0 fd 7a 13 bc 82 d7 ca 3d 6d c5 89 bd 64 e7 73 3d
       -0.009001491 0.09904386 -0.06727109 0.059546843
0002d0 f4 09 f3 3c 21 73 10 bc 0e 02 0b bd 76 f1 ba bd
       0.029667832 -0.008816511 -0.033937506 -0.09128086
0002e0 da bc b0 bd 11 5d 04 bd 4b 2d af 3d 9e 09 b5 3d
       -0.086297706 -0.032315318 0.08553561 0.08839725
0002f0 20 30 88 3d 16 8d 0e be fb 53 f5 3c 02 0b 99 bc
       0.06649804 -0.13921008 0.029947272 -0.018682007
000300 42 6e ee bd 42 79 ac 3c 26 5f 06 3e 27 30 0b 3d
       -0.11642124 0.021053914 0.13122234 0.03398147
000310 dc cf ab 3b 8a 6c 9d bc 2c da 62 3d a3 41 1b be
       0.0052432846 -0.019216795 0.055383846 -0.15161757
000320 d8 85 fc bb bf 2a a1 bc 5c d1 e6 3b af b2 a2 3c
       -0.007706385 -0.019673703 0.0070440006 0.019860594
000330 b5 78 29 be 74 00 55 3c 4c a3 24 bc b2 56 79 bd
       -0.16549952 0.013000596 -0.010048699 -0.060873695
000340 3e 00 b6 3d e0 c7 65 bb a2 4a a0 3c 14 98 d4 bd
       0.08886765 -0.0035061762 0.019566838 -0.10380569
000350 2d cd 85 bd df e1 40 bc 32 4b 77 3c 46 ab 50 be
       -0.06533275 -0.011772602 0.015093612 -0.20377836
000360 cc a3 af bd d4 c1 2b bd 9b 8e 6a bd c2 a5 35 3e
       -0.08576164 -0.041932896 -0.057264905 0.17739013
000370 61 52 86 bd ea 98 9e bb 23 f5 0a 3d b2 b9 c3 3d
       -0.06558681 -0.004840006 0.033925187 0.09556903
000380 e6 b4 93 3d d6 43 7e bd ae 79 40 bc 42 ef 9e 3d
       0.07212238 -0.062076412 -0.011747761 0.077604786
000390 d7 9f b4 bd 24 56 17 bd 62 cf 14 be 2b 19 d7 3d
       -0.088195495 -0.036947384 -0.14532235 0.10502847
0003a0 dc 92 98 bc 18 86 8b 3d 5c 48 6a bc 0c 3a 03 be
       -0.018624716 0.06812686 -0.014299478 -0.12815112
0003b0 54 b2 ad bd a0 a0 1f 3c 3e 9b bb bc 19 71 e2 bb
       -0.08481279 0.009742886 -0.022901174 -0.006910455
0003c0 0e 8b a3 bc 85 e6 0d 3d d1 f1 c7 3d 61 4f b4 bd
       -0.019963767 0.03464367 0.0976292 -0.08804203
0003d0 26 cb fe 3c 32 4d 3b 3e db 5f 2e be 59 e4 fa 3d
       0.031102728 0.18291166 -0.17028753 0.12250585
0003e0 58 3d 00 3d 23 68 9f bc 01 78 f1 3d f4 1d 3b bd
       0.031308502 -0.019458836 0.11790467 -0.045682862
0003f0 f0 6d 61 bd 41 dc de 3c f6 18 d9 bd c5 d2 20 3e
       -0.055036485 0.027204635 -0.10600464 0.15705402

sequential_1_1/lstm_1_1/while/lstm_cell_1/add_1/ReadVariableOp f4 [140]
000000 00 00 00 00 b2 f1 8d bd 00 00 00 00 d8 bc b8 3c
       0.0 -0.06930865 0.0 0.022550985
000010 8c 40 8b bb 42 3f 6c 3c 00 00 00 00 6a 6c 77 3d
       -0.004249638 0.014419379 0.0 0.060406126
000020 00 00 00 00 36 0f c4 3c 42 8a 49 af 47 7b cb bb
       0.0 0.023933034 -1.8329963e-10 -0.006209764
000030 00 00 00 00 ef bc d9 ba 00 00 00 00 cd de 7d ba
       0.0 -0.0016612093 0.0 -0.0009684384
000040 9d fb 6e bc 00 00 00 00 16 ac 1e 1d 3a a0 e3 94
       -0.0145863565 0.0 2.1000092e-21 -2.298434e-26
000050 7e 9b 34 3c 14 a9 39 bc 6f 74 71 bc a8 18 f3 38
       0.0110234 -0.011331815 -0.014737233 0.000115917355
000060 15 9b 99 bc b0 90 d6 ba be 08 25 3d e4 0d 92 b7
       -0.018750707 -0.0016370025 0.04029154 -1.7411025e-05
000070 00 00 00 00 da 06 b8 a6 b4 af e4 3c cf 81 9b b8
       0.0 -1.2769422e-15 0.027915813 -7.415155e-05
000080 e6 fe 26 99 82 cd 97 bc 69 f6 41 36 00 00 80 3f
       -8.633475e-24 -0.018530611 2.890267e-06 1.0
000090 00 00 80 3f 00 00 80 3f 00 00 80 3f 00 00 80 3f
       1.0 1.0 1.0 1.0
0000a0 00 00 80 3f 00 00 80 3f 00 00 80 3f 00 00 80 3f
       1.0 1.0 1.0 1.0
0000b0 00 00 80 3f 00 00 80 3f 00 00 80 3f 00 00 80 3f
       1.0 1.0 1.0 1.0
0000c0 00 00 80 3f 00 00 80 3f 00 00 80 3f 00 00 80 3f
       1.0 1.0 1.0 1.0
0000d0 00 00 80 3f 00 00 80 3f 00 00 80 3f 00 00 80 3f
       1.0 1.0 1.0 1.0
0000e0 00 00 80 3f 00 00 80 3f 00 00 80 3f 00 00 80 3f
       1.0 1.0 1.0 1.0
0000f0 00 00 80 3f 00 00 80 3f 00 00 80 3f 00 00 80 3f
       1.0 1.0 1.0 1.0
000100 00 00 80 3f 00 00 80 3f 00 00 80 3f 00 00 80 3f
       1.0 1.0 1.0 1.0
000110 00 00 80 3f 00 00 80 3f 00 00 00 00 7f 6d a8 31
       1.0 1.0 0.0 4.901892e-09
000120 fa bb c3 3c 1a 8c 6b 3d ac 77 15 bc e2 3b 98 3c
       0.023893345 0.057506658 -0.00912277 0.018583242
000130 3b 3b 37 bc 77 f4 73 b6 00 00 00 00 00 00 00 00
       -0.011183555 -3.635212e-06 0.0 0.0
000140 e0 70 1b 34 13 e0 ea 33 d4 88 87 3c b6 16 11 3b
       1.4476564e-07 1.0937233e-07 0.016544737 0.002213878
000150 df b4 ce 1a c5 f6 03 3b 02 ef 64 ba 00 00 00 00
       8.5491816e-23 0.00201361 -0.00087331247 0.0
000160 00 00 00 00 00 00 00 00 c6 c4 1f bd 00 00 00 00
       0.0 0.0 -0.039006017 0.0
000170 e4 0d 03 bc 84 61 a7 3b 00 00 00 00 35 47 09 bb
       -0.007998917 0.0051080603 0.0 -0.0020946984
000180 95 29 4c 3a 7c 6f 91 a8 ff 0b d9 13 00 00 00 00
       0.00077881786 -1.6146582e-14 5.479033e-27 0.0
000190 00 00 00 00 1c ab fa 35 00 00 00 00 49 57 9c bb
       0.0 1.8676251e-06 0.0 -0.0047711474
0001a0 00 00 00 00 00 00 00 00 b9 96 d5 3a 00 00 00 00
       0.0 0.0 0.0016295529 0.0
0001b0 0c 3f 2f 3d 47 8b 86 3a 00 00 00 00 00 00 00 00
       0.042784736 0.0010264897 0.0 0.0
0001c0 1d 04 0c 3d 00 00 00 00 60 39 74 37 73 80 4a b5
       0.03418361 0.0 1.4556892e-05 -7.543778e-07
0001d0 00 00 00 00 9c cd dc bb 9d e2 18 3c 3a d5 78 3d
       0.0 -0.0067383777 0.009331373 0.060750224
0001e0 5e 40 4a bc 00 00 00 00 00 00 00 00 d1 d0 97 2b
       -0.012344448 0.0 0.0 1.0787154e-12
0001f0 00 00 00 00 1b 49 86 3d 54 f2 01 bd ec fe 61 bc
       0.0 0.065569125 -0.031725243 -0.013793688
000200 57 70 75 3d 87 76 53 3a f9 16 fc bc 8a 7d 77 3b
       0.05992159 0.0008066673 -0.030772673 0.0037764036
000210 fe 80 82 b9 a4 6f 72 19 00 00 00 00 5d 1c 1d bc
       -0.0002489164 1.25336524e-23 0.0 -0.009589282
000220 46 11 59 b9 00 00 00 00 e9 55 53 3c b4 99 28 bc
       -0.00020701168 0.0 0.012898901 -0.010290552
