assets/verification.tflite (tflite, 58648 bytes, 5 tensors)

arith.constant3 f4 [5, 50]
00000000: d722 1ebf c83c 463f 4d5b 0c3f 5706 993e
00000010: df6c febe 6f05 5cbf dde6 f3be 7371 e3bc
00000020: ddb2 513e 841c 223e 7e53 90be 0cad 2bbe
00000030: 3ee3 413f 696f 133f 806a 53be 48bf 43be
00000040: 786c babd b469 183f a043 8e3e c2a3 51be
00000050: 6123 fb3e fcc4 2a3e b9d0 943d d952 eabe
00000060: 79a7 083f 5a49 283f 3d6d 21be eb93 fd3c
00000070: d05b 98bc a9df fdbe c74a 03be 2cb2 3abb
00000080: 404c a73e 0fbd 2ebe 8600 93be fd2f fa3b
00000090: a70c 083f f1a2 08be cf3c f43e 1545 5ebf
000000a0: f82f aebe ce45 39be d046 0a3f b9cd a53e
000000b0: a790 69be ee05 0d3e 6ef4 44be 1562 f63d
000000c0: 7aad 1ebf 4521 573e b4e8 ff3e 1440 0b3f
000000d0: 1c89 6ebd 3dcd 503e 11da 13be ef38 563f
000000e0: 4a63 28bf dfd3 333e 8a04 e53e 6a7e acbd
000000f0: b825 083e fb2a 36be 9a7b 99be 5ca5 08bf
00000100: bc40 a1bd 49c5 643e 908b ccbc ad12 a53e
00000110: f5f7 4cbf f3b2 04be 1939 4cbf cc90 c2bd
00000120: e497 893e d695 13bf 88bf 24be bae9 45be
00000130: c485 63be 3f83 2e3f 3843 cf3d 8808 a03e
00000140: 08c5 383e bd8f 96be a13e 0dbe 0611 bfbe
00000150: a872 27be 0c63 843d 3e9b 09bf b2e1 cebd
00000160: ef1d f5be 0f1f 693d d134 2b3f 2885 423f
00000170: 6696 18be a6bb 2abf df5a ccbe bc1b 1abf
00000180: 1acc 803e 3cc4 95be d85e c23e bf99 4e3e
00000190: 8966 b53e f9a8 babe 8246 3c3d 955a 30bf
000001a0: 1da7 293f f189 1d3f 0258 573f e4e7 ca3c
000001b0: 8c5d c73d a8cf 5a3e b044 583e 20b4 853d
000001c0: bccc e3be feda 5b3f d841 823e b7d7 f9be
000001d0: ce4d 9a3e 5f06 023f f23f 023f 4005 a83d
000001e0: 939b 393f cbb6 15be 5fd8 1bbe 6a4c 49bc
000001f0: 6596 17bf 0fbe cabe ec25 62be fbd3 01bf
00000200: 502c 603e 5b4e a5be b4e3 9a3e 73d3 a5be
00000210: 00cb a63b 44c1 03bf 8aeb 88be 5a84 03be
00000220: fa24 f8be 44f5 ee3d 7d97 90be b6d0 8c3e
00000230: 2933 2bbf 9561 c6bd 0a05 69bf 411c ba3e
00000240: e898 343f 79a8 223f d067 8fbe 4f3b 353e
00000250: 3f20 383f 9802 4bbf c3f6 133f 4ed1 0f3f
00000260: ea18 0b3f e0a9 0cbe c098 f73e 1c3a 373f
00000270: ff57 463f 949c 82be c1b7 44be b40e f23d
00000280: f0c7 903d f32c d5bd b83a 43bd 5ecb 06bf
00000290: 6a34 debd 8df1 253f 142f 4a3e 14ea 10bf
000002a0: 0c46 463e a85c 6d3c e819 b33e 5167 93be
000002b0: e392 003e 9e1e 193f 0a19 dfbe d9c6 bb3e
000002c0: 0457 b3bd 4a34 5d3f f461 a4be ff88 123f
000002d0: c071 bb3c 31e8 7e3d 50fa 9a3c 0c6e 2fbe
000002e0: 8017 a63b 78cc 38be 52f1 3fbf 2071 debc
000002f0: 012d c43e dfe4 acbe a614 04bf e20a 27bf
00000300: a158 c5be 5c2d 14bf faa1 373e 09bb 4b3f
00000310: 46c0 993e 4e9f 7c3e 2ce7 b4be 3bc0 3fbf
00000320: 3e2b 26bf 344b 0dbf 6a3e fcbe 6f28 8c3e
00000330: 5451 3d3f d558 123e ab1a 0fbf 04b7 4a3e
00000340: 622f 17bf 2ede 093e f444 cabd 0f2e 01be
00000350: edc3 5cbe 8279 c83e f064 9bbd 487f 20be
00000360: 5073 e23d 304c 30bf de3f e0be 054f 1fbd
00000370: b1d9 a53e 3076 6bbd ed35 093f a1a9 b5bd
00000380: 25d0 bb3e 8324 09bf 009d 2abe 9be9 7dbe
00000390: 6efb a13e 3ba7 2c3f fc42 a63e f144 943e
000003a0: b426 73be baf3 423f 80a5 abbc c4cf 703e
000003b0: 3850 d3be dc1f 4a3e cff2 48be f2ba 063f
000003c0: ab94 f5be 2711 3d3f 3a16 76bd 5ad5 a0be
000003d0: 9eea 043d d7a3 503f accb 3abe 372a a0be
000003e0: 453f 583e 771e ff3e
-0.6177191 0.77436495 0.54826814 0.2988765 -0.49692437 -0.8594579 -0.47637072 -0.027764058
0.20478387 0.1583119 -0.281887 -0.16765231 0.7573737 0.57591873 -0.20646095 -0.19115937
-0.0910272 0.5953629 0.2778597 -0.20472625 0.4905043 0.16676706 0.07266373 -0.45766333
0.53380543 0.65736926 -0.15764327 0.030954322 -0.018598467 -0.49584702 -0.12821494 -0.0028487546
0.32675362 -0.17064308 -0.28711337 0.007635115 0.53144306 -0.13343407 0.47702643 -0.8682416
-0.34020972 -0.18093035 0.540143 0.32383516 -0.22809087 0.13771793 -0.19233868 0.120304264
-0.61983454 0.21008785 0.49982226 0.5439465 -0.058236226 0.20390792 -0.14438654 0.83680624
-0.65776503 0.17561291 0.44730026 -0.08422549 0.13295639 -0.17789833 -0.29977113 -0.5337732
-0.07873675 0.22340883 -0.024968892 0.3224081 -0.8006585 -0.12958889 -0.79774624 -0.09500274
0.26873696 -0.57650506 -0.16088688 -0.19327441 -0.22218996 0.68169016 0.10120243 0.3125651
0.18043911 -0.2940654 -0.13793422 -0.37317675 -0.16352332 0.06464204 -0.53752506 -0.10101642
-0.478744 0.056914385 0.66877466 0.7598443 -0.14901122 -0.6669258 -0.3991308 -0.6019857
0.25155717 -0.29251277 0.37962985 0.20175837 0.3542979 -0.3645704 0.04596568 -0.6888822
0.6627062 0.61538607 0.84118664 0.024768777 0.097346395 0.21368277 0.21119952 0.06528497
-0.44492137 0.8588103 0.2544086 -0.4879739 0.30137485 0.5079097 0.5087882 0.08204126
0.7250301 -0.14620511 -0.15219258 -0.012286285 -0.5921386 -0.39598128 -0.22084779 -0.5071408
0.21891904 -0.32286343 0.3025185 -0.32387885 0.0050901175 -0.51466775 -0.26742202 -0.12843457
-0.4846571 0.116678745 -0.28240576 0.27502984 -0.6687494 -0.09686581 -0.91023314 0.3634968
0.70545816 0.6353832 -0.2800889 0.17698406 0.71924204 -0.7930083 0.57798404 0.5617875
0.5433489 -0.13736677 0.48358727 0.7157304 0.7747802 -0.25510085 -0.19210722 0.11819211
0.07069385 -0.10408964 -0.04766342 -0.52654064 -0.10849841 0.648217 0.19744521 -0.56607175
0.19362658 0.014487423 0.34980702 -0.28789762 0.12556033 0.59812343 -0.4357379 0.36675146
-0.08756831 0.8640791 -0.32105982 0.5724029 0.022881389 0.062233154 0.018918186 -0.17131823
0.0050687194 -0.18046749 -0.749776 -0.027153552 0.38315585 -0.33768365 -0.51594007 -0.6525098
-0.3854418 -0.5788171 0.17932883 0.7958227 0.30029505 0.24670145 -0.3533262 -0.74902695
-0.6490973 -0.55192876 -0.49266368 0.27374598 0.7395222 0.14291699 -0.5590007 0.19796377
-0.59056675 0.13463661 -0.09876433 -0.12615226 -0.21559115 0.39155203 -0.07587612 -0.15673554
0.1105715 -0.6886625 -0.43798727 -0.03889372 0.32392648 -0.05748576 0.5359791 -0.08870245
0.3668224 -0.5357134 -0.16661453 -0.24796145 0.31637138 0.67442673 0.3247298 0.28958848
-0.23745233 0.7615315 -0.02095294 0.23516756 -0.4127214 0.19738716 -0.19623874 0.52629006
-0.47964987 0.738543 -0.06007979 -0.31412774 0.03245031 0.815 -0.18241757 -0.31282207
0.21117885 0.4982793

arith.constant4 f4 [5]
00000000: 59e3 073e 4bbd a1bd 41e1 9f3d 69da 07bd
00000010: 91e5 58be
0.1327032 -0.07897433 0.07806636 -0.033167277 -0.21181323

arith.constant16 f4 [200, 8]
00000000: 40a8 eebd 7e00 153c b07d b43d 1d1f 86bd
00000010: d048 ef3d 118c 07be c39b 293e 53d2 30bd
00000020: d842 023e 4a0a c13d 431f e8bd 2124 c83d
00000030: 26b8 06be 3459 59be 804b ef3d c26d 92bd
00000040: cafb 223e ed63 87bd c027 f53d c464 d93d
00000050: c202 2c3e 7ca7 193e fea6 8ebd 8e9b 8d3d
00000060: 3a1f c13c 7c95 d93d 5c58 2d3c f026 2fbe
00000070: 7816 133e cf81 533d 4c85 693d f0de 85bc
00000080: 0ad7 f8bc 92eb 24be 6f94 4dbc eef8 25bd
00000090: 892b 0bbe 28a6 bd3d 6a79 b73d 3ea8 093e
000000a0: 0543 d9bb 1c70 7e3d 7fec 863b 4f31 ca3d
000000b0: 4981 9ebd c08f 643d ef4a 53be 4063 a03c
000000c0: 1009 1ebd 9319 61bd 5f74 123e 9d4a 053e
000000d0: aba4 d63d fc26 abbd f224 bbbc f291 20be
000000e0: a149 f23d 85a8 dd3d c505 1cbe b2a5 723d
000000f0: a9d0 0fbe d45c 9ebd f614 1fbe 39a4 8dbd
00000100: 2795 af3d 411f 0bbe e1e5 f93d 7c68 c43d
00000110: 9e37 f03d 6f81 883b b890 f9bc 1c1e 1abd
00000120: 4c63 09be 03e0 21be d00c b73c a751 17be
00000130: d0bc 663d 7879 963d c1cc 0abe c8c9 d4bc
00000140: a2e2 143e ddab 10be b39c 05be 02c2 2c3e
00000150: 6801 c9bc 7a26 2cbe 9115 bdbd 9867 993d
00000160: db12 a43c 9016 15be cecb c03d c2e3 efbd
00000170: 0d63 eb3d 0fc2 9bbd 18fe f3bd 6647 94bd
00000180: 96de c93d 7b29 cabd 19a0 053d 1375 383e
00000190: 5b87 1d3c 94db d9bd 9242 223d 3284 48be
000001a0: faf3 1bbe bf94 e13a f7fc 20bd 02ba 42bd
000001b0: 9c10 62bd 169a fc3d 613d 0c3e eb39 0b3e
000001c0: bedf 043e 08b6 6a3d 2476 0b3e 4000 5abc
000001d0: f275 9cbd be1d 25be 2182 9b3a c74a a1bd
000001e0: e7f4 5e3c 379f c53d b0fc 05bd 3a29 b5bd
000001f0: 5d89 78bd 25fc 173e dcdb af3d 1ca9 a33d
00000200: 0022 c43c 789f b0bc 0646 b1bd 38bc f3bc
00000210: e006 acbd 3835 8c3c e659 163e b075 a33d
00000220: 0263 c6bc 0bed d9bc 7abb bb3b 7d0d 043d
00000230: 04d2 fc3d 0156 d23d 8bf1 b3bd b475 01be
00000240: 8c7c 113e 77c2 f43b a501 13bd 1f82 73bd
00000250: 1c7d 6c3d 471a da3d f194 ccbd b91f 64bd
00000260: 5b38 12be 7aa9 553d 4ef9 053e a0c0 78bd
00000270: fd09 91bd e2dd 0d3e af16 353e 3e08 103e
00000280: 1684 0a3e ac8a 143d 84e2 c83d 5cf9 bd3d
00000290: 30ba a93d 2431 0bbe b090 013c b095 57bc
000002a0: e951 10be 6c03 183e 6642 bebd 80ab cc3d
000002b0: fb07 a5bd e928 b9bd 7051 f73c dc58 d93d
000002c0: 43d4 003d 817d 1bbd c598 65bc 447a 913d
000002d0: 448b 23be b9b8 1d3e e767 fe3d 4a6f 92bd
000002e0: 700c f53d cc0d 143d 48e9 b13d 94b1 e63d
000002f0: d8ee 983c 6889 203d 7a80 03be 04c5 e53d
00000300: f8c5 093e 442a d13d 38ba 173d db05 c7bd
00000310: 34e1 d43d 740c 423d 20da 183c b0c6 a13c
00000320: dfb9 043e 075f 10bd c838 babd 7409 273e
00000330: c4b6 973b 4f66 fe3d 43df 1f3c 62b7 34bd
00000340: 98ce 2bbd b0fa 40bc c91a f0bd 8bdb 19be
00000350: b2bd 17be 3ce3 ddbd eff1 b3bd 40f6 4a3c
00000360: 80be be3d 6671 a4bd a033 c0bd 2d32 113d
00000370: 3ced 32bd 0e36 633e 0571 2b3e c131 ebbd
00000380: ed17 2abe eac4 043e c407 d23d d0aa 60bc
00000390: 088f bfbd 2a3d 0dbe 78e3 d73d f47a ff3d
000003a0: f53f c1bd f400 103e c391 1dbe 8f85 943d
000003b0: e5af 0c3e 7150 b5bc 1eb5 1abe 7da1 183d
000003c0: c315 23be 17cc 86bd 58c1 683d e88f a1bc
000003d0: 707b 973d edbd d7bd 94ec d83d 2c37 98bd
000003e0: c50d f3bd f14d c13d 14be 09be 581f 873c
000003f0: b562 19be 7249 09be 86d7 02be 074d bd3d
-0.11653185 0.009094356 0.088130355 -0.06548903 0.1168381 -0.13237025 0.16563325 -0.04316933
0.12720811 0.094257906 -0.11334088 0.09772516 -0.13156185 -0.21225435 0.11684322 -0.07149841
0.15916362 -0.06610856 0.11970472 0.10614923 0.16797927 0.15005296 -0.06965445 0.06914435
0.02357446 0.10624215 0.010580149 -0.17104697 0.1436404 0.051637467 0.057011887 -0.016341656
-0.030375976 -0.16105488 -0.012547596 -0.0405206 -0.13590826 0.092602074 0.08958705 0.13443086
-0.006630304 0.062118635 0.004117548 0.09872686 -0.07739503 0.055801153 -0.20634054 0.019578576
-0.03858286 -0.05495603 0.14302205 0.13016744 0.10480627 -0.08357045 -0.022844765 -0.15680674
0.1183045 0.10823158 -0.15236576 0.05924005 -0.14044441 -0.07732549 -0.1553534 -0.069160886
0.085733704 -0.13586141 0.12202049 0.09590241 0.11729358 0.0041658203 -0.030464515 -0.03762637
-0.13416785 -0.1580811 0.022344977 -0.14777242 0.05633241 0.07347387 -0.1355467 -0.025975123
0.14539579 -0.1412806 -0.13048057 0.16870883 -0.024536803 -0.16811553 -0.09232629 0.07490462
0.020028522 -0.14559388 0.09413873 -0.11713363 0.11493502 -0.07605373 -0.11913699 -0.07240181
0.09856908 -0.09871193 0.032623384 0.1801341 0.009614791 -0.10637584 0.039614268 -0.19581679
-0.15229788 0.0017210467 -0.039303746 -0.047540672 -0.05519162 0.12334077 0.13695289 0.13596313
0.12975976 0.057302505 0.13619286 -0.013305724 -0.07639684 -0.16124627 0.0011864343 -0.07875591
0.013608194 0.096495084 -0.032711685 -0.08845754 -0.060677875 0.1484228 0.08586857 0.079912394
0.023941994 -0.021560416 -0.08655934 -0.029752836 -0.08399749 0.01711522 0.14682731 0.079814315
-0.024217132 -0.026602289 0.005729136 0.032239426 0.12344745 0.1027031 -0.08786305 -0.12642556
0.14207667 0.007469471 -0.03589024 -0.059450265 0.0577365 0.10649543 -0.09989346 -0.055694316
-0.1427931 0.05216358 0.13083383 -0.060730577 -0.07081983 0.13854173 0.17684434 0.14065644
0.1352695 0.03626506 0.098088294 0.09276077 0.082874656 -0.13592964 0.007908031 -0.013158247
-0.14093746 0.14845055 -0.09290008 0.099936485 -0.08058163 -0.09041006 0.0301902 0.10612652
0.03145243 -0.037961487 -0.014013474 0.071033984 -0.15971094 0.15402497 0.124221615 -0.07150133
0.11965263 0.03614597 0.08687073 0.11264339 0.018668577 0.03919354 -0.12841979 0.112192184
0.13454425 0.1021314 0.037042826 -0.09717914 0.103945166 0.047375157 0.009329349 0.019748062
0.12961529 -0.035246875 -0.090928614 0.163122 0.0046299417 0.124218576 0.00975782 -0.0441202
-0.04194507 -0.011778519 -0.11723859 -0.15025155 -0.14818457 -0.10834357 -0.087863795 0.012387812
0.09313679 -0.080294415 -0.09384847 0.035448242 -0.043683276 0.22188589 0.16742332 -0.11484099
-0.1661069 0.12965742 0.102553874 -0.0137126 -0.09353453 -0.13792863 0.10541433 0.12474623
-0.09436027 0.14062864 -0.15387635 0.07252037 0.13738973 -0.022133084 -0.15108153 0.037263382
-0.1592627 -0.06581896 0.056825012 -0.01972194 0.07396591 -0.10534272 0.10591999 -0.07432398
-0.11867861 0.09438694 -0.13451415 0.016494438 -0.1497906 -0.13406923 -0.12777528 0.092432074

arith.constant17 f4 [200, 50]
00000000: f076 b33d 2c76 c5bd 1a8f 863c f852 143d
00000010: c243 8ebd aa0c 433d ca78 d63d 6c48 ab3d
00000020: 34e8 913c 1efb 223d 7b5c 54bd 16af a93d
00000030: 756f 08be a726 393e 0086 5e3d b52f b13d
00000040: c645 0ebd 8b16 963d e6ff d3bb 98fb 023b
00000050: db54 c4bd 2953 86bd 2039 403b 5871 383d
00000060: 61f0 a9bc 5be9 fc3c 5815 06bb 6efd 80bc
00000070: a2d0 71ba 7736 c33d c290 2a3d 7a0a aa3d
00000080: 3074 043d 2a8d 88bc 4c02 f83b 80f7 babd
00000090: 4a91 b0bd c540 1a3d 8c83 963d 9177 653c
000000a0: ec08 233e 7e75 7dbc e15a 3b3d 60fd 8abb
000000b0: 00f8 0339 b1c7 ddbd 309c 2f3b c115 f8bc
000000c0: 781c 6f3d 5860 033d ff0e 06bd c0f0 febd
000000d0: ab74 5a3d 7caf 90bd 7b11 fdbc 48ca d63b
000000e0: 77e1 c9bd 4637 be3d 3287 103e e54a 79bd
000000f0: 12bc 9fbc 8d2d 91bd e595 753d 3636 9a3b
00000100: 673f 1a3e ef56 bb3d 33cb 463d aff4 f5bb
00000110: 2f22 96bd 8931 85bc 560e 613e d9be e83d
00000120: f4aa d5bd 47e8 6ebd 969e a7bb b2c4 9c3d
00000130: 4e86 df3c 15dd cabd 44aa 89bc a130 3b3d
00000140: 7e7a a53d 2500 b9bd 6eb3 833d 0c3f a33d
00000150: 8689 ee3d bd1d 823c 1f21 333d 05c1 bd3d
00000160: a11c 33bd 915d d53d c55c acbb 2c3d c53c
00000170: b7d9 10bd 7c55 d13d dc62 39bd 6729 fdbc
00000180: 66b2 823c 2d0c 083d d0ac 79bc cea1 59bd
00000190: d07a 5fbd d4b4 e63c 0061 e9bc f46f 07bc
000001a0: 9589 c63c ddae 3dbc b32c e3bd 36a7 a63c
000001b0: 9900 93bd 60c3 823d 82ca a5bd 2ef3 fe3c
000001c0: 5a1c 73bd b434 fd3d 41a6 d3bc 49c8 ea3c
000001d0: a6b2 e0bc 8877 063d 72b5 81bd a919 163d
000001e0: 1202 353d 6897 97bd 2960 75bd 44ca a0bc
000001f0: 8c2f 693d 87a6 87bd 2e53 edbb ed14 0a3d
00000200: b316 04be b24c 9bbd f473 483c 0206 dc3d
00000210: f827 17ba 402f 18bd 67c6 16bd 26e2 193d
00000220: e95b 0fbe 2391 933d 3a9b f53c 8ebb d6bd
00000230: c0d5 d1bd b03e c6bb 0525 09bd 93ec 933d
00000240: 7530 9cbc 81dd 943c 8605 9dbd 7152 e23c
00000250: bda5 d7bc 42f2 31bd 4df0 bebd 1373 37bd
00000260: b99b 9abd 001f a43c 6450 6d3d 53c2 0dbd
00000270: 7114 233e b894 46bd 8bc8 293d ba12 1bbe
00000280: e4e7 723c f3fa 75bd c3d9 93bc 68ae 183c
00000290: 4bb4 89bd ede5 973d ad28 1f3d c43e 9ebc
000002a0: 39ee 733d c01e 52bb f83d 4bbd 7120 31bc
000002b0: 39cc 41bd 362b fdbb 3fc3 433d 8411 003d
000002c0: 92af 95bd 5460 7cbc d62e ee3d da37 15bd
000002d0: 5d9c 7a3d b9b3 acbd 8109 de3d 7c0b d43d
000002e0: 9596 7dbb d14f 06be d426 f9bc 65bb 4b3d
000002f0: 79cd 3cbd aa3f 6f3d b02b 983a 3656 55bd
00000300: a391 1cbd 87a8 06be 0825 2cbb 89b0 c9bd
00000310: 5975 a7bd fc57 953d 4c37 d2bd 2045 b5bd
00000320: 3cb0 5b3d 6587 8b3b ef52 2cbe 36b1 74bd
00000330: f04c 803d 711b 5f3d 2e2c c4bd de9c 1d3c
00000340: a08f 40ba f84b 31bd ec87 cb3d 3925 8b3c
00000350: de0d fabd 7eae 423d bae9 89ba 13d8 dc3d
00000360: 2aca dd3c 6e13 d3bd 947e de3d 6033 92bc
00000370: 1639 243d ccff 3f3c 6fc6 f03d 5a20 873d
00000380: 8aa9 71bd d711 a63d e6a0 ef3c ec3f 89bc
00000390: 2822 15be aed3 a4bc 626a 8dbd 6693 e4bd
000003a0: aeac 89bd 7ac4 e03d 462a 01be 7c21 413d
000003b0: c9a6 d4bd b2c8 023d 667d 8abd 38a3 113d
000003c0: 931b b4bd 29a4 a43c 1433 8d3c f882 5c3b
000003d0: f355 c23c 8c66 b63d 2653 773c 7d87 b2bd
000003e0: b892 57bd 2450 3e3b 3041 753c c212 9a3b
000003f0: 96a6 85bd 91e2 36bd f6b0 0e3d 6095 7fbd
0.0876292 -0.0964168 0.016425658 0.036211938 -0.069465175 0.0476195 0.104722574 0.08363423
0.017810918 0.039790265 -0.05184601 0.08285348 -0.13323767 0.18081151 0.05432701 0.086516775
-0.03473451 0.073285185 -0.0064697145 0.0019986387 -0.095864974 -0.0655883 0.0029330924 0.045029968
-0.020744504 0.030872991 -0.00204595 -0.015745845 -0.0009224509 0.09531873 0.041641958 0.083027795
0.032337368 -0.016668875 0.007568633 -0.09129238 -0.08621462 0.037659425 0.07349309 0.014005558
0.15921372 -0.015469907 0.045740966 -0.0042416304 0.00012585521 -0.10829104 0.0026795976 -0.03028381
0.05837676 0.032074302 -0.032729145 -0.12448263 0.05333392 -0.07064721 -0.030892124 0.0065548755
-0.09857457 0.09287886 0.14114073 -0.06086244 -0.019498859 -0.07088766 0.059957404 0.0047061695
0.15063249 0.09147441 0.04853363 -0.007505975 -0.07330739 -0.016258972 0.21978125 0.11364526
-0.10432997 -0.058326986 -0.0051153405 0.07654704 0.027285721 -0.09905449 -0.016804822 0.045700673
0.08080004 -0.09033231 0.06430708 0.079710096 0.11647324 0.015883321 0.04373276 0.09265331
-0.043728475 0.10418237 -0.0052600824 0.02407702 -0.03536388 0.10221383 -0.045260295 -0.030903531
0.015954208 0.033214737 -0.015238956 -0.053132825 -0.054560483 0.028162397 -0.028488636 -0.008266438
0.024235526 -0.011577335 -0.1109251 0.020343404 -0.07177848 0.06384921 -0.08095266 0.031121816
-0.05935321 0.12363568 -0.025836112 0.028659957 -0.027428936 0.032828838 -0.06333436 0.036645565
0.044191428 -0.07401925 -0.05990616 -0.019627698 0.05693011 -0.066235594 -0.007242582 0.033711363
-0.12899284 -0.07582988 0.012234677 0.107433334 -0.00057661487 -0.037154436 -0.036810305 0.037569188
-0.13999905 0.07205417 0.029981244 -0.10484992 -0.10245848 -0.0060499534 -0.03348257 0.07222857
-0.019066075 0.018172028 -0.07667069 0.027627202 -0.026324147 -0.043443926 -0.093231775 -0.044787478
-0.07549233 0.020034313 0.057937995 -0.03460915 0.15925767 -0.048481673 0.04145102 -0.15143862
0.014825795 -0.060053777 -0.018048173 0.009318925 -0.06723841 0.07416902 0.03885715 -0.019317038
0.05955336 -0.0032061785 -0.049619645 -0.010810957 -0.047313903 -0.0077260984 0.047793623 0.031266704
-0.07308878 -0.015403826 0.11630027 -0.036430217 0.061184276 -0.08432717 0.108416565 0.10353753
-0.003869449 -0.13116385 -0.030414023 0.04973926 -0.04609439 0.058410324 0.00116097 -0.05208417
-0.038224827 -0.13150226 -0.002626719 -0.098481245 -0.08176679 0.07292172 -0.10264453 -0.08851075
0.053634867 0.0042580836 -0.16828512 -0.059739314 0.06264675 0.05446953 -0.09578739 0.00961992
-0.00073456205 -0.04328534 0.099380344 0.016985523 -0.12209676 0.04752969 -0.0010521926 0.107834004
0.027073938 -0.1030644 0.108639866 -0.017846763 0.040093504 0.011718702 0.11756598 0.065979674
-0.058999576 0.081088714 0.029251527 -0.016754113 -0.14563811 -0.020120468 -0.069050565 -0.111609265
-0.06722389 0.10974975 -0.12613782 0.047151074 -0.10383374 0.03192968 -0.06762199 0.03555605
-0.08794322 0.020097809 0.01723627 0.00336474 0.023722624 0.08906278 0.015095508 -0.087172486
-0.052630156 0.0029039467 0.014969155 0.004701943 -0.06525914 -0.044649664 0.03483673 -0.062398314

sequential_1/lstm_1/while/lstm_cell_1/add_1/ReadVariableOp f4 [200]
00000000: 187c 0e3c 10e3 4bbc 0000 0000 6695 243c
00000010: b3fe 59bd 7f57 133d 9fc2 193d 9356 90bc
00000020: 5230 0fbc 6615 9e20 7758 eaa1 59cd 94bc
00000030: b987 393c bfb0 5b3b f79e f9af ab67 0b3c
00000040: c7e9 cb10 c7bd 92bb 8397 213d 7dc9 273c
00000050: d4e0 672e 84c2 871e d48a 953b 0000 0000
00000060: 0000 0000 60fc 443c 8c22 a312 de2c d23c
00000070: 954a 741f eacb 863c 185e 3a99 d4de cbb6
00000080: 0000 0000 12e1 433c c9ff 562f 0000 0000
00000090: 873d 8cbd eaa5 172b 0000 0000 f16c 1e3c
000000a0: 7ac7 61bc b306 8e3c fbc2 793d 0000 0000
000000b0: 335b 35bc 4e4f 29bb 0000 0000 c755 143c
000000c0: d00f 103d c39a 733c 0000 803f 0000 803f
000000d0: 0000 803f 0000 803f 0000 803f 0000 803f
000000e0: 0000 803f 0000 803f 0000 803f 0000 803f
000000f0: 0000 803f 0000 803f 0000 803f 0000 803f
00000100: 0000 803f 0000 803f 0000 803f 0000 803f
00000110: 0000 803f 0000 803f 0000 803f 0000 803f
00000120: 0000 803f 0000 803f 0000 803f 0000 803f
00000130: 0000 803f 0000 803f 0000 803f 0000 803f
00000140: 0000 803f 0000 803f 0000 803f 0000 803f
00000150: 0000 803f 0000 803f 0000 803f 0000 803f
00000160: 0000 803f 0000 803f 0000 803f 0000 803f
00000170: 0000 803f 0000 803f 0000 803f 0000 803f
00000180: 0000 803f 0000 803f 0000 803f 0000 803f
00000190: 9ba6 b23b 0000 0000 28f5 9bbd 9c43 d33b
000001a0: b832 9e37 0000 0000 1cca e7bc 7249 5634
000001b0: 0000 0000 c878 e113 0000 0000 93a9 6c30
000001c0: 7e19 dd3c 687e 32bc 0000 0000 7be2 49bc
000001d0: 0000 0000 11c1 453d d28c a13a 0000 0000
000001e0: 0000 0000 66d2 6613 0000 0000 53b5 253c
000001f0: 171e 243c e897 31bc 0000 0000 fa09 00bc
00000200: 0000 0000 a844 97bc 0000 0000 04c0 8899
00000210: 0000 0000 f8d1 dbbc 1ba6 1ea1 5020 5d2c
00000220: d972 693b 65ab 8793 cde2 dd3c 0000 0000
00000230: 614b 6710 52b6 ea3c 7b43 333c 3cef b23b
00000240: 0000 0000 9263 60bb 588f 0016 0000 0000
00000250: fdda b8bc 3a70 083c 0000 0000 c139 8d3b
00000260: 0000 0000 738d 783d 0000 0000 ab16 dc3c
00000270: 95b9 863d 3699 28bc 70db 443d e509 9e20
00000280: 35b7 09a2 89f3 a7bb 62ea a73c 2a6c cbbc
00000290: ee22 e3b1 0000 0000 e8e4 2c97 6a1f 2c3a
000002a0: 65b4 323d 7250 3c3c 9449 733c e5eb 871e
000002b0: efdc 1cbc cadc 463c 4a9d 99b9 79ef 5f3d
000002c0: 0000 0000 84d2 b73c 41b9 aa31 2c9e 62bb
000002d0: 725e 3a99 2537 da20 0000 0000 0000 0000
000002e0: e188 2c33 1503 1c32 0000 0000 0000 0000
000002f0: aab0 4bbc c2ec 683d afc7 c6b9 a331 503c
00000300: 4a4f 8a38 57fa 973c 1f85 20ba 43a3 db3b
00000310: 20d4 cdb3 811b c0bc 6196 feb8 ea2c 463d
0.008696578 -0.012444273 0.0 0.010045385 -0.053221416 0.035972115 0.03753912 -0.017619407
-0.008739548 2.6780401e-19 -1.5879873e-18 -0.018164324 0.011323863 0.0033522097 -4.5405787e-10 0.008508603
8.042957e-29 -0.0044781896 0.039451133 0.01024091 5.2723007e-11 1.437413e-20 0.0045636687 0.0
0.0 0.0120230615 1.0295263e-27 0.02565616 5.1730703e-20 0.016454656 -9.634977e-24 -6.075812e-06
0.0 0.011955516 1.955406e-10 0.0 -0.06847673 5.387623e-13 0.0 0.009669528
-0.013780469 0.017337179 0.060976963 0.0 -0.011069107 -0.0025834623 0.0 0.009053654
0.03517133 0.014868441 1.0 1.0 1.0 1.0 1.0 1.0
1.0 1.0 1.0 1.0 1.0 1.0 1.0 1.0
1.0 1.0 1.0 1.0 1.0 1.0 1.0 1.0
1.0 1.0 1.0 1.0 1.0 1.0 1.0 1.0
1.0 1.0 1.0 1.0 1.0 1.0 1.0 1.0
1.0 1.0 1.0 1.0 1.0 1.0 1.0 1.0
1.0 1.0 1.0 1.0 0.00545199 0.0 -0.07615119 0.0064472686
1.8858686e-05 0.0 -0.028294615 1.9957022e-07 0.0 5.6917085e-27 0.0 8.609728e-10
0.026989695 -0.010894395 0.0 -0.012322064 0.0 0.048279826 0.0012325293 0.0
0.0 2.9133816e-27 0.0 0.010114032 0.01001694 -0.01083944 0.0 -0.007814879
0.0 -0.018465355 0.0 -1.4139625e-23 0.0 -0.02683352 -5.375232e-19 3.1423926e-12
0.0035621433 -3.42478e-27 0.027085686 0.0 4.5614787e-29 0.02865139 0.010941382 0.005460648
0.0 -0.0034239036 1.0384989e-25 0.0 -0.02256536 0.008327538 0.0 0.0043098633
0.0 0.06068177 0.0 0.026866278 0.06578366 -0.010290435 0.048060834 2.677279e-19
-1.8663951e-18 -0.005125467 0.020497505 -0.02483185 -6.6105406e-09 0.0 -5.586512e-25 0.00065659604
0.04362907 0.011493789 0.014849085 1.4391245e-20 -0.009574159 0.012137601 -0.00029299624 0.05467174
0.0 0.022439249 4.968712e-09 -0.003457914 -9.635048e-24 3.6967128e-19 0.0 0.0
4.017136e-08 9.081096e-09 0.0 0.0 -0.012432257 0.056866415 -0.0003791428 0.012707147
6.5951215e-05 0.018551989 -0.0006123352 0.006702812 -9.584642e-08 -0.023450615 -0.00012139674 0.048382677
